…
shear=0.0, perspective=0.0, flipud=0.0, fliplr=0.5, mosaic=1.0, mixup=0.15, copy_paste=0.3
[34m[1mClearML: [0mrun 'pip install clearml' to automatically track, visualize and remotely train YOLO 🚀 in ClearML
[34m[1mComet: [0mrun 'pip install comet_ml' to automatically track and visualize YOLO 🚀 runs in Comet
[34m[1mTensorBoard: [0mStart with 'tensorboard --logdir runs/train', view at http://localhost:6006/
Overriding model.yaml nc=80 with nc=6

                 from  n    params  module                                  arguments                     
  0                -1  1         0  models.common.Silence                   []                            
  1                -1  1      1856  models.common.Conv                      [3, 64, 3, 2]                 
  2                -1  1     73984  models.common.Conv                      [64, 128, 3, 2]               
  3                -1  1    252160  models.common.RepNCSPELAN4              [128, 256, 128, 64, 2]        
  4                -1  1    164352  models.common.ADown                     [256, 256]                    
  5                -1  1   1004032  models.common.RepNCSPELAN4              [256, 512, 256, 128, 2]       
  6                -1  1    656384  models.common.ADown                     [512, 512]                    
  7                -1  1   4006912  models.common.RepNCSPELAN4              [512, 1024, 512, 256, 2]      
  8                -1  1   2623488  models.common.ADown                     [1024, 1024]                  
  9                -1  1   4269056  models.common.RepNCSPELAN4              [1024, 1024, 512, 256, 2]     
 10                 1  1      4160  models.common.CBLinear                  [64, [64]]                    
 11                 3  1     49344  models.common.CBLinear                  [256, [64, 128]]              
 12                 5  1    229824  models.common.CBLinear                  [512, [64, 128, 256]]         
 13                 7  1    984000  models.common.CBLinear                  [1024, [64, 128, 256, 512]]   
 14                 9  1   2033600  models.common.CBLinear                  [1024, [64, 128, 256, 512, 1024]]
 15                 0  1      1856  models.common.Conv                      [3, 64, 3, 2]                 
 16[10, 11, 12, 13, 14, -1]  1         0  models.common.CBFuse                    [[0, 0, 0, 0, 0]]             
 17                -1  1     73984  models.common.Conv                      [64, 128, 3, 2]               
 18[11, 12, 13, 14, -1]  1         0  models.common.CBFuse                    [[1, 1, 1, 1]]                
 19                -1  1    252160  models.common.RepNCSPELAN4              [128, 256, 128, 64, 2]        
 20                -1  1    164352  models.common.ADown                     [256, 256]                    
 21  [12, 13, 14, -1]  1         0  models.common.CBFuse                    [[2, 2, 2]]                   
 22                -1  1   1004032  models.common.RepNCSPELAN4              [256, 512, 256, 128, 2]       
 23                -1  1    656384  models.common.ADown                     [512, 512]                    
 24      [13, 14, -1]  1         0  models.common.CBFuse                    [[3, 3]]                      
 25                -1  1   4006912  models.common.RepNCSPELAN4              [512, 1024, 512, 256, 2]      
 26                -1  1   2623488  models.common.ADown                     [1024, 1024]                  
 27          [14, -1]  1         0  models.common.CBFuse                    [[4]]                         
 28                -1  1   4269056  models.common.RepNCSPELAN4              [1024, 1024, 512, 256, 2]     
 29                 9  1    787968  models.common.SPPELAN                   [1024, 512, 256]              
 30                -1  1         0  torch.nn.modules.upsampling.Upsample    [None, 2, 'nearest']          
 31           [-1, 7]  1         0  models.common.Concat                    [1]                           
 32                -1  1   4005888  models.common.RepNCSPELAN4              [1536, 512, 512, 256, 2]      
 33                -1  1         0  torch.nn.modules.upsampling.Upsample    [None, 2, 'nearest']          
 34           [-1, 5]  1         0  models.common.Concat                    [1]                           
 35                -1  1   1069056  models.common.RepNCSPELAN4              [1024, 256, 256, 128, 2]      
 36                28  1    787968  models.common.SPPELAN                   [1024, 512, 256]              
 37                -1  1         0  torch.nn.modules.upsampling.Upsample    [None, 2, 'nearest']          
 38          [-1, 25]  1         0  models.common.Concat                    [1]                           
 39                -1  1   4005888  models.common.RepNCSPELAN4              [1536, 512, 512, 256, 2]      
 40                -1  1         0  torch.nn.modules.upsampling.Upsample    [None, 2, 'nearest']          
 41          [-1, 22]  1         0  models.common.Concat                    [1]                           
 42                -1  1   1069056  models.common.RepNCSPELAN4              [1024, 256, 256, 128, 2]      
 43                -1  1    164352  models.common.ADown                     [256, 256]                    
 44          [-1, 39]  1         0  models.common.Concat                    [1]                           
 45                -1  1   3612672  models.common.RepNCSPELAN4              [768, 512, 512, 256, 2]       
 46                -1  1    656384  models.common.ADown                     [512, 512]                    
 47          [-1, 36]  1         0  models.common.Concat                    [1]                           
 48                -1  1  12860416  models.common.RepNCSPELAN4              [1024, 512, 1024, 512, 2]     
 49[35, 32, 29, 42, 45, 48]  1  10990532  models.yolo.DualDDetect                 [6, [256, 512, 512, 256, 512, 512]]
yolov9-e summary: 1476 layers, 69415556 parameters, 69415524 gradients, 244.9 GFLOPs

[34m[1mAMP: [0mchecks passed ✅
[34m[1moptimizer:[0m SGD(lr=0.01) with parameter groups 356 weight(decay=0.0), 375 weight(decay=0.0005), 373 bias
[34m[1malbumentations: [0m1 validation error for InitSchema
…
