…
shear=0.0, perspective=0.0, flipud=0.0, fliplr=0.5, mosaic=1.0, mixup=0.15, copy_paste=0.3
[34m[1mClearML: [0mrun 'pip install clearml' to automatically track, visualize and remotely train YOLO 🚀 in ClearML
[34m[1mComet: [0mrun 'pip install comet_ml' to automatically track and visualize YOLO 🚀 runs in Comet
[34m[1mTensorBoard: [0mStart with 'tensorboard --logdir runs/train', view at http://localhost:6006/
Overriding model.yaml nc=80 with nc=6

                 from  n    params  module                                  arguments                     
  0                -1  1       464  models.common.Conv                      [3, 16, 3, 2]                 
  1                -1  1      4672  models.common.Conv                      [16, 32, 3, 2]                
  2                -1  1      7872  models.common.ELAN1                     [32, 32, 32, 16]              
  3                -1  1     18560  models.common.AConv                     [32, 64]                      
  4                -1  1     65216  models.common.RepNCSPELAN4              [64, 64, 64, 32, 3]           
  5                -1  1     55488  models.common.AConv                     [64, 96]                      
  6                -1  1    145824  models.common.RepNCSPELAN4              [96, 96, 96, 48, 3]           
  7                -1  1    110848  models.common.AConv                     [96, 128]                     
  8                -1  1    258432  models.common.RepNCSPELAN4              [128, 128, 128, 64, 3]        
  9                -1  1     41344  models.common.SPPELAN                   [128, 128, 64]                
 10                -1  1         0  torch.nn.modules.upsampling.Upsample    [None, 2, 'nearest']          
 11           [-1, 6]  1         0  models.common.Concat                    [1]                           
 12                -1  1    158112  models.common.RepNCSPELAN4              [224, 96, 96, 48, 3]          
 13                -1  1         0  torch.nn.modules.upsampling.Upsample    [None, 2, 'nearest']          
 14           [-1, 4]  1         0  models.common.Concat                    [1]                           
 15                -1  1     71360  models.common.RepNCSPELAN4              [160, 64, 64, 32, 3]          
 16                -1  1     27744  models.common.AConv                     [64, 48]                      
 17          [-1, 12]  1         0  models.common.Concat                    [1]                           
 18                -1  1    150432  models.common.RepNCSPELAN4              [144, 96, 96, 48, 3]          
 19                -1  1     55424  models.common.AConv                     [96, 64]                      
 20           [-1, 9]  1         0  models.common.Concat                    [1]                           
 21                -1  1    266624  models.common.RepNCSPELAN4              [192, 128, 128, 64, 3]        
 22                 8  1     41344  models.common.SPPELAN                   [128, 128, 64]                
 23                -1  1         0  torch.nn.modules.upsampling.Upsample    [None, 2, 'nearest']          
 24           [-1, 6]  1         0  models.common.Concat                    [1]                           
 25                -1  1    158112  models.common.RepNCSPELAN4              [224, 96, 96, 48, 3]          
 26                -1  1         0  torch.nn.modules.upsampling.Upsample    [None, 2, 'nearest']          
 27           [-1, 4]  1         0  models.common.Concat                    [1]                           
 28                -1  1     71360  models.common.RepNCSPELAN4              [160, 64, 64, 32, 3]          
 29[28, 25, 22, 15, 18, 21]  1    952004  models.yolo.DualDDetect                 [6, [64, 96, 128, 64, 96, 128]]
yolov9-t summary: 1220 layers, 2661236 parameters, 2661204 gradients, 11.0 GFLOPs

[34m[1mAMP: [0mchecks passed ✅
[34m[1moptimizer:[0m SGD(lr=0.01) with parameter groups 291 weight(decay=0.0), 305 weight(decay=0.0005), 303 bias
[34m[1malbumentations: [0m1 validation error for InitSchema
…
