…
shear=0.0, perspective=0.0, flipud=0.0, fliplr=0.5, mosaic=1.0, mixup=0.15, copy_paste=0.3
[34m[1mClearML: [0mrun 'pip install clearml' to automatically track, visualize and remotely train YOLO 🚀 in ClearML
[34m[1mComet: [0mrun 'pip install comet_ml' to automatically track and visualize YOLO 🚀 runs in Comet
[34m[1mTensorBoard: [0mStart with 'tensorboard --logdir runs/train', view at http://localhost:6006/
Overriding model.yaml nc=80 with nc=6

                 from  n    params  module                                  arguments                     
  0                -1  1         0  models.common.Silence                   []                            
  1                -1  1       928  models.common.Conv                      [3, 32, 3, 2]                 
  2                -1  1     18560  models.common.Conv                      [32, 64, 3, 2]                
  3                -1  1    171648  models.common.RepNCSPELAN4              [64, 128, 128, 64, 1]         
  4                -1  1    276960  models.common.AConv                     [128, 240]                    
  5                -1  1    629520  models.common.RepNCSPELAN4              [240, 240, 240, 120, 1]       
  6                -1  1    778320  models.common.AConv                     [240, 360]                    
  7                -1  1   1414080  models.common.RepNCSPELAN4              [360, 360, 360, 180, 1]       
  8                -1  1   1556160  models.common.AConv                     [360, 480]                    
  9                -1  1   2511840  models.common.RepNCSPELAN4              [480, 480, 480, 240, 1]       
 10                -1  1    577440  models.common.SPPELAN                   [480, 480, 240]               
 11                -1  1         0  torch.nn.modules.upsampling.Upsample    [None, 2, 'nearest']          
 12           [-1, 7]  1         0  models.common.Concat                    [1]                           
 13                -1  1   1586880  models.common.RepNCSPELAN4              [840, 360, 360, 180, 1]       
 14                -1  1         0  torch.nn.modules.upsampling.Upsample    [None, 2, 'nearest']          
 15           [-1, 5]  1         0  models.common.Concat                    [1]                           
 16                -1  1    715920  models.common.RepNCSPELAN4              [600, 240, 240, 120, 1]       
 17                -1  1    397808  models.common.AConv                     [240, 184]                    
 18          [-1, 13]  1         0  models.common.Concat                    [1]                           
 19                -1  1   1480320  models.common.RepNCSPELAN4              [544, 360, 360, 180, 1]       
 20                -1  1    778080  models.common.AConv                     [360, 240]                    
 21          [-1, 10]  1         0  models.common.Concat                    [1]                           
 22                -1  1   2627040  models.common.RepNCSPELAN4              [720, 480, 480, 240, 1]       
 23                 5  1     57840  models.common.CBLinear                  [240, [240]]                  
 24                 7  1    216600  models.common.CBLinear                  [360, [240, 360]]             
 25                 9  1    519480  models.common.CBLinear                  [480, [240, 360, 480]]        
 26                 0  1       928  models.common.Conv                      [3, 32, 3, 2]                 
 27                -1  1     18560  models.common.Conv                      [32, 64, 3, 2]                
 28                -1  1    171648  models.common.RepNCSPELAN4              [64, 128, 128, 64, 1]         
 29                -1  1    276960  models.common.AConv                     [128, 240]                    
 30  [23, 24, 25, -1]  1         0  models.common.CBFuse                    [[0, 0, 0]]                   
 31                -1  1    629520  models.common.RepNCSPELAN4              [240, 240, 240, 120, 1]       
 32                -1  1    778320  models.common.AConv                     [240, 360]                    
 33      [24, 25, -1]  1         0  models.common.CBFuse                    [[1, 1]]                      
 34                -1  1   1414080  models.common.RepNCSPELAN4              [360, 360, 360, 180, 1]       
 35                -1  1   1556160  models.common.AConv                     [360, 480]                    
 36          [25, -1]  1         0  models.common.CBFuse                    [[2]]                         
 37                -1  1   2511840  models.common.RepNCSPELAN4              [480, 480, 480, 240, 1]       
 38[31, 34, 37, 16, 19, 22]  1   9097988  models.yolo.DualDDetect                 [6, [240, 360, 480, 240, 360, 480]]
yolov9-m summary: 939 layers, 32771428 parameters, 32771396 gradients, 132.4 GFLOPs

[34m[1mAMP: [0mchecks passed ✅
[34m[1moptimizer:[0m SGD(lr=0.01) with parameter groups 230 weight(decay=0.0), 247 weight(decay=0.0005), 245 bias
[34m[1malbumentations: [0m1 validation error for InitSchema
…
