…
shear=0.0, perspective=0.0, flipud=0.0, fliplr=0.5, mosaic=1.0, mixup=0.15, copy_paste=0.3
[34m[1mClearML: [0mrun 'pip install clearml' to automatically track, visualize and remotely train YOLO 🚀 in ClearML
[34m[1mComet: [0mrun 'pip install comet_ml' to automatically track and visualize YOLO 🚀 runs in Comet
[34m[1mTensorBoard: [0mStart with 'tensorboard --logdir runs/train', view at http://localhost:6006/
Overriding model.yaml nc=80 with nc=6

                 from  n    params  module                                  arguments                     
  0                -1  1       928  models.common.Conv                      [3, 32, 3, 2]                 
  1                -1  1     18560  models.common.Conv                      [32, 64, 3, 2]                
  2                -1  1     31104  models.common.ELAN1                     [64, 64, 64, 32]              
  3                -1  1     73984  models.common.AConv                     [64, 128]                     
  4                -1  1    258432  models.common.RepNCSPELAN4              [128, 128, 128, 64, 3]        
  5                -1  1    221568  models.common.AConv                     [128, 192]                    
  6                -1  1    579648  models.common.RepNCSPELAN4              [192, 192, 192, 96, 3]        
  7                -1  1    442880  models.common.AConv                     [192, 256]                    
  8                -1  1   1028864  models.common.RepNCSPELAN4              [256, 256, 256, 128, 3]       
  9                -1  1    164608  models.common.SPPELAN                   [256, 256, 128]               
 10                -1  1         0  torch.nn.modules.upsampling.Upsample    [None, 2, 'nearest']          
 11           [-1, 6]  1         0  models.common.Concat                    [1]                           
 12                -1  1    628800  models.common.RepNCSPELAN4              [448, 192, 192, 96, 3]        
 13                -1  1         0  torch.nn.modules.upsampling.Upsample    [None, 2, 'nearest']          
 14           [-1, 4]  1         0  models.common.Concat                    [1]                           
 15                -1  1    283008  models.common.RepNCSPELAN4              [320, 128, 128, 64, 3]        
 16                -1  1    110784  models.common.AConv                     [128, 96]                     
 17          [-1, 12]  1         0  models.common.Concat                    [1]                           
 18                -1  1    598080  models.common.RepNCSPELAN4              [288, 192, 192, 96, 3]        
 19                -1  1    221440  models.common.AConv                     [192, 128]                    
 20           [-1, 9]  1         0  models.common.Concat                    [1]                           
 21                -1  1   1061632  models.common.RepNCSPELAN4              [384, 256, 256, 128, 3]       
 22                 8  1    164608  models.common.SPPELAN                   [256, 256, 128]               
 23                -1  1         0  torch.nn.modules.upsampling.Upsample    [None, 2, 'nearest']          
 24           [-1, 6]  1         0  models.common.Concat                    [1]                           
 25                -1  1    628800  models.common.RepNCSPELAN4              [448, 192, 192, 96, 3]        
 26                -1  1         0  torch.nn.modules.upsampling.Upsample    [None, 2, 'nearest']          
 27           [-1, 4]  1         0  models.common.Concat                    [1]                           
 28                -1  1    283008  models.common.RepNCSPELAN4              [320, 128, 128, 64, 3]        
 29[28, 25, 22, 15, 18, 21]  1   2946500  models.yolo.DualDDetect                 [6, [128, 192, 256, 128, 192, 256]]
yolov9-s summary: 1220 layers, 9747236 parameters, 9747204 gradients, 39.6 GFLOPs

[34m[1mAMP: [0mchecks passed ✅
[34m[1moptimizer:[0m SGD(lr=0.01) with parameter groups 291 weight(decay=0.0), 305 weight(decay=0.0005), 303 bias
[34m[1malbumentations: [0m1 validation error for InitSchema
…
