…
0.0, fliplr=0.5, mosaic=1.0, mixup=0.15, copy_paste=0.3
[34m[1mClearML: [0mrun 'pip install clearml' to automatically track, visualize and remotely train YOLO 🚀 in ClearML
[34m[1mComet: [0mrun 'pip install comet_ml' to automatically track and visualize YOLO 🚀 runs in Comet
[34m[1mTensorBoard: [0mStart with 'tensorboard --logdir runs/train', view at http://localhost:6006/
Overriding model.yaml nc=80 with nc=6

                 from  n    params  module                                  arguments                     
[34m[1mactivation:[0m nn.ReLU()
  0                -1  1         0  models.common.Silence                   []                            
  1                -1  1      1856  models.common.Conv                      [3, 64, 3, 2]                 
  2                -1  1     73984  models.common.Conv                      [64, 128, 3, 2]               
  3                -1  1    212864  models.common.RepNCSPELAN4              [128, 256, 128, 64, 1]        
  4                -1  1    590336  models.common.Conv                      [256, 256, 3, 2]              
  5                -1  1    847616  models.common.RepNCSPELAN4              [256, 512, 256, 128, 1]       
  6                -1  1   2360320  models.common.Conv                      [512, 512, 3, 2]              
  7                -1  1   2857472  models.common.RepNCSPELAN4              [512, 512, 512, 256, 1]       
  8                -1  1   2360320  models.common.Conv                      [512, 512, 3, 2]              
  9                -1  1   2857472  models.common.RepNCSPELAN4              [512, 512, 512, 256, 1]       
 10                -1  1    656896  models.common.SPPELAN                   [512, 512, 256]               
 11                -1  1         0  torch.nn.modules.upsampling.Upsample    [None, 2, 'nearest']          
 12           [-1, 7]  1         0  models.common.Concat                    [1]                           
 13                -1  1   3119616  models.common.RepNCSPELAN4              [1024, 512, 512, 256, 1]      
 14                -1  1         0  torch.nn.modules.upsampling.Upsample    [None, 2, 'nearest']          
 15           [-1, 5]  1         0  models.common.Concat                    [1]                           
 16                -1  1    912640  models.common.RepNCSPELAN4              [1024, 256, 256, 128, 1]      
 17                -1  1    590336  models.common.Conv                      [256, 256, 3, 2]              
 18          [-1, 13]  1         0  models.common.Concat                    [1]                           
 19                -1  1   2988544  models.common.RepNCSPELAN4              [768, 512, 512, 256, 1]       
 20                -1  1   2360320  models.common.Conv                      [512, 512, 3, 2]              
 21          [-1, 10]  1         0  models.common.Concat                    [1]                           
 22                -1  1   3119616  models.common.RepNCSPELAN4              [1024, 512, 512, 256, 1]      
 23                 5  1    131328  models.common.CBLinear                  [512, [256]]                  
 24                 7  1    393984  models.common.CBLinear                  [512, [256, 512]]             
 25                 9  1    656640  models.common.CBLinear                  [512, [256, 512, 512]]        
 26                 0  1      1856  models.common.Conv                      [3, 64, 3, 2]                 
 27                -1  1     73984  models.common.Conv                      [64, 128, 3, 2]               
 28                -1  1    212864  models.common.RepNCSPELAN4              [128, 256, 128, 64, 1]        
 29                -1  1    590336  models.common.Conv                      [256, 256, 3, 2]              
 30  [23, 24, 25, -1]  1         0  models.common.CBFuse                    [[0, 0, 0]]                   
 31                -1  1    847616  models.common.RepNCSPELAN4              [256, 512, 256, 128, 1]       
 32                -1  1   2360320  models.common.Conv                      [512, 512, 3, 2]              
 33      [24, 25, -1]  1         0  models.common.CBFuse                    [[1, 1]]                      
 34                -1  1   2857472  models.common.RepNCSPELAN4              [512, 512, 512, 256, 1]       
 35                -1  1   2360320  models.common.Conv                      [512, 512, 3, 2]              
 36          [25, -1]  1         0  models.common.CBFuse                    [[2]]                         
 37                -1  1   2857472  models.common.RepNCSPELAN4              [512, 512, 512, 256, 1]       
 38[31, 34, 37, 16, 19, 22]  1  21554372  models.yolo.DualDDetect                 [6, [512, 512, 512, 256, 512, 512]]
yolov9 summary: 930 layers, 60808772 parameters, 60808740 gradients, 266.2 GFLOPs

[34m[1mAMP: [0mchecks passed ✅
[34m[1moptimizer:[0m SGD(lr=0.01) with parameter groups 230 weight(decay=0.0), 247 weight(decay=0.0005), 245 bias
[34m[1malbumentations: [0m1 validation error for InitSchema
…
